…
    ==================================================================================================
    Total params: 639,454
    Trainable params: 639,454
    Non-trainable params: 0
    __________________________________________________________________________________________________


2/15/2020 @9:58p CT:
    Faded2DConvModel: ~62% Cross-Validation Accuracy

Model: "model_1"
__________________________________________________________________________________________________
Layer (type)                    Output Shape         Param #     Connected to
==================================================================================================
input_2 (InputLayer)            (None, 104, 10)      0
__________________________________________________________________________________________________
input_3 (InputLayer)            (None, 208, 10)      0
__________________________________________________________________________________________________
input_4 (InputLayer)            (None, 208, 10)      0
__________________________________________________________________________________________________
input_5 (InputLayer)            (None, 208, 10)      0
__________________________________________________________________________________________________
input_1 (InputLayer)            (None, 26, 10)       0
__________________________________________________________________________________________________
conv1d_2 (Conv1D)               (None, 97, 128)      10368       input_2[0][0]
__________________________________________________________________________________________________
conv1d_3 (Conv1D)               (None, 201, 64)      5184        input_3[0][0]
__________________________________________________________________________________________________
conv1d_4 (Conv1D)               (None, 201, 64)      5184        input_4[0][0]
__________________________________________________________________________________________________
conv1d_5 (Conv1D)               (None, 201, 64)      5184        input_5[0][0]
__________________________________________________________________________________________________
conv1d_1 (Conv1D)               (None, 19, 256)      20736       input_1[0][0]
__________________________________________________________________________________________________
max_pooling1d_1 (MaxPooling1D)  (None, 48, 128)      0           conv1d_2[0][0]
__________________________________________________________________________________________________
max_pooling1d_2 (MaxPooling1D)  (None, 50, 64)       0           conv1d_3[0][0]
__________________________________________________________________________________________________
max_pooling1d_3 (MaxPooling1D)  (None, 25, 64)       0           conv1d_4[0][0]
__________________________________________________________________________________________________
max_pooling1d_4 (MaxPooling1D)  (None, 12, 64)       0           conv1d_5[0][0]
__________________________________________________________________________________________________
flatten_1 (Flatten)             (None, 4864)         0           conv1d_1[0][0]
__________________________________________________________________________________________________
flatten_2 (Flatten)             (None, 6144)         0           max_pooling1d_1[0][0]
__________________________________________________________________________________________________
flatten_3 (Flatten)             (None, 3200)         0           max_pooling1d_2[0][0]
__________________________________________________________________________________________________
flatten_4 (Flatten)             (None, 1600)         0           max_pooling1d_3[0][0]
__________________________________________________________________________________________________
flatten_5 (Flatten)             (None, 768)          0           max_pooling1d_4[0][0]
__________________________________________________________________________________________________
dense_1 (Dense)                 (None, 100)          486500      flatten_1[0][0]
__________________________________________________________________________________________________
dense_2 (Dense)                 (None, 50)           307250      flatten_2[0][0]
__________________________________________________________________________________________________
dense_3 (Dense)                 (None, 25)           80025       flatten_3[0][0]
__________________________________________________________________________________________________
dense_4 (Dense)                 (None, 25)           40025       flatten_4[0][0]
__________________________________________________________________________________________________
dense_5 (Dense)                 (None, 15)           11535       flatten_5[0][0]
__________________________________________________________________________________________________
concatenate_1 (Concatenate)     (None, 215)          0           dense_1[0][0]
                                                                 dense_2[0][0]
                                                                 dense_3[0][0]
                                                                 dense_4[0][0]
                                                                 dense_5[0][0]
__________________________________________________________________________________________________
dropout_1 (Dropout)             (None, 215)          0           concatenate_1[0][0]
__________________________________________________________________________________________________
reshape_1 (Reshape)             (None, 1, 215)       0           dropout_1[0][0]
__________________________________________________________________________________________________
gru_1 (GRU)                     (None, 1, 100)       94800       reshape_1[0][0]
__________________________________________________________________________________________________
gru_2 (GRU)                     (None, 1, 100)       60300       gru_1[0][0]
__________________________________________________________________________________________________
dropout_2 (Dropout)             (None, 1, 100)       0           gru_2[0][0]
__________________________________________________________________________________________________
flatten_6 (Flatten)             (None, 100)          0           dropout_2[0][0]
__________________________________________________________________________________________________
dense_6 (Dense)                 (None, 6)            606         flatten_6[0][0]
==================================================================================================
Total params: 1,127,697
Trainable params: 1,127,697
Non-trainable params: 0
__________________________________________________________________________________________________